vamb/kernel.npz (npz, 77187 bytes, 1 tensors)

arr_0 f4 [256, 103]
000000 d5 45 39 bd bd 56 9f 3d ff 44 ec bc 4f 1a 37 3d
       -0.045232613 0.07780216 -0.028841494 0.044702824
000010 38 63 e6 bc 6f 03 ef 3c 64 4f 9d bd 8c 53 64 3b
       -0.028123483 0.029176442 -0.07681158 0.0034839837
000020 bb 20 47 bc 49 84 c0 3b ae 46 f1 ba 2c cb ed bc
       -0.0121538 0.0058751446 -0.0018407905 -0.029027544
000030 45 14 62 bc 05 96 4a 3b b3 69 b5 bd f0 76 eb bc
       -0.013798778 0.0030912173 -0.08858051 -0.028743237
000040 88 75 d6 3c ae 3c 37 bd c9 1b 86 bc 25 83 dc 3d
       0.02617909 -0.044735603 -0.01637067 0.10767201
000050 1d 7e b9 bd bb 09 aa 3c 38 0a 19 3d 8d 60 95 bd
       -0.09057257 0.020756593 0.03736326 -0.07293806
000060 af f8 25 bc a4 16 c0 bc 1d 51 45 bd 24 9f 90 3c
       -0.010130092 -0.023448296 -0.04817306 0.01765401
000070 8e 53 56 3c dd d1 e4 bd 62 58 ab bc d6 64 45 3c
       0.013081444 -0.11172841 -0.020916168 0.012047967
000080 96 be 17 bd c0 c8 92 bd dd 70 03 bd 15 d9 15 3d
       -0.03704699 -0.07167196 -0.032090057 0.03658398
000090 59 6f 55 bb 62 7a b4 bd 37 c2 0f 3d 9f 50 f4 38
       -0.003256759 -0.08812405 0.035097327 0.000116498435
0000a0 e9 6b e6 bd a7 25 21 bd 78 26 08 bd 58 da c2 3c
       -0.11251051 -0.03934255 -0.03323981 0.023785755
0000b0 c2 67 2b bd f6 19 9c 3c e0 3c 97 bd 4c 08 b8 bc
       -0.041846998 0.019055348 -0.07384658 -0.022464894
0000c0 c0 d0 74 bd ad 8a 5f bc 70 9d 0e bd 33 e7 88 39
       -0.059769392 -0.013643903 -0.034818113 0.00026112198
0000d0 5a d1 be bc fe 4f 2d bd 15 7f 74 3c 7b da 42 3a
       -0.023293186 -0.042312615 0.014922877 0.0007433069
0000e0 31 94 5f 3c 1f 3f b2 bd 2f a5 52 bd 73 f7 ee 3b
       0.013646171 -0.08703446 -0.051427063 0.007292682
0000f0 16 5b dd bc a2 78 96 bc ae 89 91 bd 59 53 8e bd
       -0.027020972 -0.01836807 -0.071063384 -0.06949491
000100 3d 2b 20 bd db 37 e5 bb 5e 5a 33 bd 61 02 97 bc
       -0.039103735 -0.006995184 -0.043787353 -0.018433752
000110 5b 41 11 bd 2b db 11 bc 90 a7 c3 bc 83 bf 2a bd
       -0.03546272 -0.008902351 -0.023883611 -0.041686546
000120 9e 5c 0d 3c 34 87 a6 3c be be 10 3c 4b 0c 4d bd
       0.008628039 0.020328142 0.008834539 -0.05006055
000130 9d b4 ba bd e2 97 73 bb 9d 61 48 bd c7 29 37 bd
       -0.091164805 -0.0037169387 -0.048921216 -0.044717576
000140 d6 d0 09 bc d4 63 d6 3c 76 67 00 bd 83 29 8f bd
       -0.008411607 0.026170649 -0.031348668 -0.069903396
000150 b0 d0 5f bc 57 da 90 bd 61 58 e3 3c 83 ca 2a bd
       -0.013660595 -0.07072895 0.027752103 -0.041697036
000160 f4 a2 7e bd 1e ce 63 3c b2 08 db bd 87 e4 1b bd
       -0.062167123 0.013904123 -0.10695018 -0.038059738
000170 9e be 38 bd 36 cc 83 3c 81 3c 13 bd 2f 97 48 bd
       -0.04510366 0.016088586 -0.035946373 -0.048972305
000180 fb ec 6b 3c be 9b d3 bd c8 1f ae b9 3f 0e 38 bd
       0.014399762 -0.1033244 -0.00033211545 -0.04493546
000190 4d 23 1d bd f0 c6 cd bd 6b ea 03 3f e0 17 3b bd
       -0.038363744 -0.1004771 0.5152957 -0.045677066
0001a0 af db 07 bd 5e 92 0a 3e f7 9b ca 3b aa 7c 51 3e
       -0.03316849 0.13532397 0.0061831432 0.20457712
0001b0 75 a0 c3 3b 3a 91 bd 3b d5 d1 0e 3d d8 49 42 bb
       0.0059700557 0.0057851346 0.03486808 -0.0029646065
0001c0 a7 ad 0e 3c 24 e8 c6 bb 6f 25 47 bd 6d 91 ad bc
       0.008708394 -0.006070154 -0.048619684 -0.021187508
0001d0 8e 9b cc bb 71 d1 a0 3c 2a be cd 3c 0a 5d b0 bd
       -0.0062441295 0.01963112 0.025115091 -0.08611496
0001e0 73 06 29 bc d8 00 97 b9 51 7f ab ba 6c e1 57 bc
       -0.010316479 -0.00028801593 -0.0013084208 -0.013176303
0001f0 77 54 37 bc 56 fa e8 39 5c e1 40 bc b8 20 c9 3c
       -0.011189572 0.00044437003 -0.01177248 0.024551734
000200 24 b1 ac 3d 7c 58 b8 3d ef 43 c1 3e 24 94 8f be
       0.084322244 0.09001252 0.37747142 -0.2804271
000210 16 d8 87 3b 44 c1 3a 3b 6b fb 0f 3e f3 d9 31 bd
       0.0041456325 0.0028496543 0.14060752 -0.043420743
000220 23 47 c1 ba 9f 59 2c bc 6d 4d 2c bd 09 d2 4e bc
       -0.0014745932 -0.010519414 -0.042066026 -0.0126233185
000230 42 d3 8c bc 38 a6 9c 3c 7b 56 b4 3b 43 c4 ed 3c
       -0.01719058 0.019122228 0.0055034733 0.029024249
000240 f5 05 03 bd 3a e8 a0 bc 84 f3 08 3d 12 3c 6b bb
       -0.031988103 -0.019641984 0.03343536 -0.003589396
000250 90 70 ae bc 6c 43 29 bc 42 63 db 3a 50 fa 4e 3c
       -0.021293908 -0.010331016 0.0016737955 0.012632921
000260 f1 80 36 3c 3e 65 44 bc 92 ec ed bb a5 d0 e2 3c
       0.01113914 -0.011987029 -0.0072608674 0.02768738
000270 e5 13 89 bc 25 31 c6 bb 99 bb 90 bc 8c c3 11 bd
       -0.01673312 -0.006048339 -0.017667579 -0.03558688
000280 0e 84 81 bc 17 6d 55 bc e7 c5 31 bc 74 ba 40 bc
       -0.015810039 -0.013026497 -0.010850406 -0.011763204
000290 dd f8 13 bc f4 7e c7 3c b2 ca 41 bc 0d c3 9d bc
       -0.009031502 0.024352528 -0.0118281115 -0.019258047
0002a0 92 d9 f8 bc 5f 79 ce 3b 25 21 02 bc 22 43 03 bb
       -0.030377183 0.0063010897 -0.007942473 -0.0020029028
0002b0 56 5b 15 bd 0e 8a 45 bb f8 18 23 3c 96 63 9c bc
       -0.036464058 -0.0030142101 0.0099546835 -0.019090455
0002c0 86 b5 a8 bb 46 a7 09 3c 56 86 aa 3b 36 e2 d4 3c
       -0.0051485924 0.0084016975 0.0052040024 0.025986772
0002d0 73 4b d0 bc f9 5b 97 3c a6 df cd 3b 4d bc f8 bc
       -0.025426602 0.018476473 0.0062827645 -0.030363226
0002e0 5a f9 cf 3b f1 96 2e 3c 4e 21 60 bc 5f b8 90 bb
       0.0063468637 0.010656104 -0.013679815 -0.00441651
0002f0 91 1d 06 bc 36 e3 55 bc c5 1f 23 ba 30 2c d6 3b
       -0.00818576 -0.01305466 -0.00062226906 0.0065360293
000300 bf 94 41 3b d9 19 2b bb 38 39 28 3d c4 6a cc bc
       0.0029538122 -0.0026107936 0.041070193 -0.024953254
000310 06 2d 73 bb 0d 43 35 3d 00 c5 ae 3c 50 01 21 3b
       -0.0037105693 0.044253398 0.021334171 0.0024567433
000320 1e 54 81 3c c4 30 82 3c fb e8 65 3c c8 b3 0b 3c
       0.01578718 0.015892394 0.014032598 0.00852675
000330 1f 22 25 bc db db c7 3c df 15 45 3d 09 02 ed 3c
       -0.010078936 0.024396827 0.04811656 0.028931635
000340 2e db 81 bd bf db 10 3d 68 4a cd bc 0e ed 08 3d
       -0.06340633 0.035365816 -0.025059894 0.033429198
000350 99 36 75 bd c5 20 aa bd 13 fb 10 bd 10 7c 5d 3c
       -0.05986652 -0.083070315 -0.035395693 0.013518348
000360 fe de 8c 3c ad c0 e2 bb bf c3 86 3d 18 3c aa 3c
       0.017196175 -0.0069199414 0.06580304 0.020780608
000370 58 b4 59 bd 54 01 97 3d c5 c0 1a bd e6 44 81 3d
       -0.053150505 0.073733 -0.037781496 0.063119695
000380 64 3b 18 3c 5d 5d 5b bd 9e 47 7e 3b b3 80 38 bd
       0.009291504 -0.053555835 0.0038800011 -0.045044612
000390 39 7f 9f bc 3c 90 7f 3d d7 7b 36 bd 75 a7 5b bd
       -0.019469844 0.062393412 -0.044551697 -0.053626496
0003a0 a8 f0 ab bc 75 30 30 bc a4 e3 50 3d 7f 82 16 bd
       -0.020988777 -0.010753741 0.050998345 -0.036745545
0003b0 fb 7b b8 3d 98 e1 d0 3c cf 17 c5 3d 57 80 28 3d
       0.090080224 0.025498196 0.09623682 0.04113802
0003c0 a2 f0 55 bb d6 1f a7 bc e6 82 3b 3d e6 12 e0 3c
       -0.003264465 -0.020400923 0.04577913 0.027352761
0003d0 77 52 d9 3d c8 7d a6 3c 97 0c d7 3c f7 1c eb 3b
       0.10611432 0.020323649 0.02625112 0.0071750837
0003e0 42 b9 84 ba d3 27 df bd 17 9d 97 3d d5 2e 1b bd
       -0.0010126012 -0.10896268 0.074030094 -0.03788646
0003f0 66 63 02 3d 93 9c d5 bd 58 4b 00 be b7 9e 72 bc
       0.031833075 -0.10430255 -0.12528741 -0.014808348
